model_cnn.pth (torch, 435171 bytes, 8 tensors)

conv1.weight f4 [6, 3, 5, 5]
00000000: 5d70 403d 3f32 2fbc 77d5 91bd 44ff 85bd
00000010: 0eb9 ef3c 90a9 24bd c562 34bd 54c2 c4bc
00000020: e153 66bd fe61 92bb 3bf7 993b 501f 6f3d
00000030: f8ff 473d ba4d 46bd 4821 b93d 6658 d0bd
00000040: a3c4 143d a3c3 2bbe 5ffd 6a3d a7a7 dbbd
00000050: 5b4a ffbd 950f 5d3d 86e2 f9bd d0f7 f7bd
00000060: 5143 bb3d 9b8b e73d d144 5e3d a397 883b
00000070: f567 f7bc 4bbd ad3c 0ee5 d63d 1dd0 c2bc
00000080: 5460 433d 5503 0c3e cca0 6b3d f0f6 193e
00000090: 97bc 1e3e 9c6c f73d 7a48 cd3d b718 173e
000000a0: c73a 9d3d 92e3 3f3d e793 d93d 6987 123e
000000b0: a17f d23d b908 c73d aba5 633e 103b 563d
000000c0: 1711 9c3d d092 c1bc 9bee f9bd c0de 86bc
000000d0: dabf 2abc f1bb 28bd 4875 bc3c 2713 abbd
000000e0: 846b 063c aaa7 04be d92d 2fbd 97d7 a73d
000000f0: 7823 0cbe 5fbd 49bd 32c2 b53d 59e3 6bbd
00000100: 6161 0fbd ee2a c7bb 7693 863d 61e4 a3bd
00000110: a4a1 923c d9cd deba 6ef9 5ebe 55c6 c23c
00000120: b193 a4bd b896 c1bd f02e 263d eaf1 c0bd
00000130: feb5 4dbd 719b 88bc 8bd3 e13d 1314 d3bd
00000140: 4355 0d3e 07cc 2b3e 4904 743e b93a c63d
00000150: 70b5 553e 7c00 a6bd 51b0 78bc 0ab6 a33d
00000160: 5ea0 f23d 5f37 113e 02b5 77bd 0798 4ebe
00000170: af5e 88be ae17 83be d264 2dbe bf69 a23c
00000180: 1275 b13d 3ea1 663d d569 033d 0c96 8cbd
00000190: d501 a33d c818 a2ba 700e f13d 8a0a daba
000001a0: 8e92 a13d 422c 9b3c a35d 133e 7094 5b3e
000001b0: 9913 893d 1386 0b3e f3b8 18bd 8601 0fbe
000001c0: 67bd 75bd 9e57 a4bd 9f75 55bc 4f4d 3d3d
000001d0: 5229 58be 537a 23be 45d1 b1be 2d35 1bbe
000001e0: 1060 a03d b38d 923d 6e02 803d c819 9dbd
000001f0: a3fb 76bd 55d0 2dbd 35a3 8abd ab16 083c
00000200: 78a4 ab3d bd4b 5d3c cffb 503d 370c ff3b
00000210: 8113 593d 7c8e d13d ef6a d33d 46c6 d33c
00000220: 9fe6 4abd 66c4 25be fb34 8d3b a9e1 e63b
00000230: f866 713c 8306 993c 0ba8 7fbd 3988 5bbe
00000240: e9de 6fbd f6bb 023c b455 47bd 2f8d 7c3d
00000250: 1398 3d3e a9f6 cb3c b21f 363e a275 823e
00000260: f58f b83d 9d21 123e 6d61 0e3e 1e47 433e
00000270: f024 453e eb29 963d 42c3 483e ce47 073e
00000280: ea2e 073b 66bb 563e 478f d9bd 0aa1 d43d
00000290: dd5c 153e a27d 5d3d 0d77 0f3e ba99 85be
000002a0: 137a 18bd f983 113e cd0e 5dbe 0166 023d
000002b0: 5f02 56be a9c3 49be b7d2 e03c 95e6 82be
000002c0: 8352 61be 1800 fabd 22f0 01bd df06 40bd
000002d0: faff 38be eb1d 0abd 39cd 6abe 9c96 d0bd
000002e0: a299 13bd 5b57 8d3c e3c3 96bc 207d a3be
000002f0: 7bfa 96bc 9bdb c73d 6550 f23c ce40 7ebc
00000300: ad1d 9abe d8e4 26be 4979 153e 25ac 0b3d
00000310: 6c09 273e c3b3 0fbe cb40 913c baf9 0b3e
00000320: d75f 283d 5fdd 9c3b 9012 c1bd 0aaa 15bd
00000330: 15de 143d 6be2 59bd a317 d5bd 9fa6 f9bd
00000340: cf8c f7bb 6a40 633d 75d9 05bd 14a4 a2bc
00000350: a72a 7dbe 9ebd e3bd 2c87 373e 1a4d 3ebd
00000360: faef 5f3e 81d0 8ebd 43ef 363d 9f0b fd3d
00000370: be97 0d3e 7d2d 613e 8dca 34bd f5e8 91bd
00000380: 029d 863d a0d6 15bc 9a38 9cbc 8239 f13d
00000390: db49 73be bbd4 b0bd 1c1f 7cbd d739 e33d
000003a0: 25bb 18be 105d 9bbe 5ac5 e03d bb29 38be
000003b0: 2bcd bfbd 04d0 25be 1324 203d bc7a b33d
000003c0: a15c 79be dc44 9abd e718 173e 756f 073e
000003d0: 571b 983d f604 6b3e 53d2 573e e9e5 123d
000003e0: 6346 c83b 3bf7 963b 7e70 2f3e 688b ca3d
000003f0: e07f 6d3d 0f62 5bbe e22a 143e 34b1 143e
0.046982158 -0.010693132 -0.07120793 -0.06542829 0.029263046 -0.04020077 -0.044039506 -0.024018444
-0.056232337 -0.004467248 0.0046986616 0.05837947 0.048828095 -0.04841397 0.09039551 -0.10173111
0.03632034 -0.16773848 0.05737054 -0.107253365 -0.12465354 0.05396994 -0.12201409 -0.12107813
0.09143699 0.113059245 0.054264847 0.004168467 -0.030200938 0.021208426 0.104929075 -0.023780877
0.047699288 0.13673146 0.057526395 0.15035605 0.15501629 0.120812625 0.100235894 0.14755522
0.076772265 0.046847887 0.10623913 0.14309467 0.102782495 0.097184606 0.22231166 0.05230242
0.07620447 -0.023629576 -0.122037135 -0.016463637 -0.010421718 -0.04119486 0.023005143 -0.083532624
0.008204345 -0.12954584 -0.042768333 0.081954174 -0.13685405 -0.049252864 0.088749304 -0.057589862
-0.035004977 -0.0060781157 0.06571095 -0.08002544 0.017899342 -0.0016998603 -0.21774837 0.023776213
-0.080359824 -0.094525754 0.040572107 -0.094211414 -0.05022239 -0.016675683 0.11026677 -0.10306563
0.13802056 0.16777049 0.2382976 0.09679169 0.20869994 -0.08105561 -0.015178756 0.079937056
0.11846994 0.14181279 -0.060475357 -0.20175181 -0.26634738 -0.25604004 -0.16932991 0.019825814
0.086649075 0.056306116 0.03208335 -0.06864557 0.07959334 -0.0012367005 0.11770332 -0.0016635221
0.07889281 0.018942002 0.14391188 0.21443343 0.06693191 0.13625364 -0.037285756 -0.13965425
-0.05999508 -0.08024524 -0.013028531 0.046216305 -0.21109512 -0.15964632 -0.34729972 -0.15157004
0.078308225 0.07155933 0.062504634 -0.07670933 -0.060298573 -0.04243501 -0.067694105 0.008306186
0.08380979 0.013506827 0.051021393 0.0077834385 0.052997116 0.10232255 0.1032313 0.02585138
-0.049536344 -0.16188201 0.0043092943 0.0070459438 0.014734022 0.018679863 -0.062416118 -0.21438684
-0.058562193 0.007979384 -0.048665717 0.06165808 0.18515043 0.02489789 0.17785528 0.25480372
0.090118326 0.14270635 0.13904352 0.19070098 0.19252372 0.07332214 0.19605735 0.13210985
0.0020627328 0.20969924 -0.10623031 0.10382278 0.14586206 0.05407489 0.14010258 -0.26093847
-0.037225794 0.142105 -0.21587677 0.03183556 -0.20899342 -0.19703545 0.027444227 -0.25566545
-0.22004132 -0.12207049 -0.03172315 -0.046881553 -0.18066397 -0.03371994 -0.22929849 -0.101849765
-0.036035188 0.017253568 -0.018403953 -0.319314 -0.018429985 0.09758683 0.02957935 -0.01551838
-0.30100766 -0.16298234 0.14597048 0.034099717 0.16312188 -0.14033417 0.017731091 0.13669482
0.041107025 0.0047871317 -0.09427369 -0.036539115 0.036344606 -0.053194445 -0.10404899 -0.121899836
-0.0075546275 0.055481352 -0.032678086 -0.01985363 -0.24723302 -0.11120151 0.17922658 -0.04646025
0.21868888 -0.06973363 0.04466177 0.12355732 0.13827416 0.21990009 -0.04413848 -0.07124511
0.065729156 -0.009145409 -0.019069958 0.11778547 -0.23758642 -0.08634325 -0.061553106 0.110950164
-0.1491514 -0.3034444 0.10975142 -0.17984669 -0.093653046 -0.16192633 0.039096903 0.08763644
-0.24351741 -0.07532665 0.14755593 0.13226111 0.0742709 0.22951111 0.21076326 0.03586379
0.0061119064 0.004607109 0.17132756 0.09889871 0.05798328 -0.21424125 0.14469483 0.14520723

conv1.bias f4 [6]
00000000: 3dcc 06be 4c82 bebb e952 6e3d 9154 203e
00000010: 3441 d13d a008 873d
-0.13163848 -0.0058138724 0.058184538 0.1565726 0.10217515 0.06593442

conv2.weight f4 [16, 6, 5, 5]
00000000: 4e91 1e3d bcf7 673d 0155 84bd ea9b 0e3d
00000010: 89e0 983d 5971 5f3d f2b4 b2bd f417 efbc
00000020: 3607 c83d b13e ee3d cd76 833d 526c 8cbc
00000030: b759 fc3c d961 853b c441 583d d5ab 83bd
00000040: 71fa dbbd e20b dcbd 97e2 d63c 89c2 5fbc
00000050: 7214 1abe 222d f9bd 1ddd b1bd 17aa 98bd
00000060: 66ee 263d ab68 0bbd 77ae c6bc 9cf1 da3c
00000070: d6cd 6c3d 490b b73d 34d3 e4bd 1e3d 0bbc
00000080: aa9d bebb 1448 8a3a a609 9d3d eda8 50bc
00000090: d69f 17bd b9e3 39be 6755 af3c 4050 b43d
000000a0: be1e 303d 88c0 88be 63f4 87be bbad 933d
000000b0: 5586 9a3d 1907 bdbd f33d a8be aef1 3fbe
000000c0: 2c3e c0bd 2cb5 9abd c4db 2b3d 3304 483d
000000d0: 8100 c03d c8dc 213c 38b7 c9bd 6d44 21be
000000e0: dd86 713e 66ef 283e 7130 873a 1bb7 bfbd
000000f0: c8cf aabe 5e66 f13e fbce a53d 78ae d5bd
00000100: 8bb6 93bd 8c37 0ebe c8f5 e73e 8a12 9a3d
00000110: 1649 90bd d42b 0e3c f126 04be 2ae5 0e3e
00000120: 8748 cc3d 970a 05be 996b bebd 50fa f33d
00000130: 5cbc fbbd cae9 9ebd c832 b03d 1888 33bc
00000140: 7c60 c0bc 7d42 32bd 0f0f 033e 787a c93d
00000150: c752 8dbd f92a 88be 9f86 933e 5789 823e
00000160: 4b39 a0bd 2a0d 3bbd 5d4b 4fbe 649d c43e
00000170: a981 173d 1f90 01be 5bce 68bd 25c2 903c
00000180: 51dc 783e 897a 663d 0363 ba3d 5dad 533d
00000190: 20ce 173c 368d 143e 2108 923d 53ba 19be
000001a0: f9e5 2abd b4ba eebc b4bd 2c3e ee3e 8fbe
000001b0: 370d b0bd e283 f53c 7333 41bd 91bd 773e
000001c0: 826c fabe b9f9 f23d 4040 bc3c 0c8f 943d
000001d0: e883 933e ecb8 20bf 4686 013e 97c2 553c
000001e0: 38e8 ca3d eb8b e83d 63e7 c9be 3eb9 5bbc
000001f0: 7d72 373c b759 673b 6594 99bd 6926 0d3d
00000200: 3ca3 a63d 3fdb 833d fe10 9cbd 3a7b 1e3c
00000210: 2e7b b93d ea6e 103e 9a81 533c dfa8 e1bc
00000220: 68b9 e03d 8c5a 183e 9552 e13d cfdd 943c
00000230: 2dc8 fdbc 1992 b13d 5049 023d b787 843d
00000240: 7ee7 abbd f8f7 c7bd 4494 463c 7696 bdbd
00000250: 4e43 9cbc 063a 63be cf46 08bd b8e9 d4bd
00000260: fbcd 293d 3276 d7bc 9854 ad3c d344 773d
00000270: 21cb e23c f806 7c3d 377e 81bb b469 253e
00000280: e1bf 273d 43f7 033e e011 6b3d b589 5ebd
00000290: 26b7 2cbb 44af 16bd 439d d63c a4c0 9d3d
000002a0: 81e1 013e d51a 2abc c5cc 3cbc 26af 48bd
000002b0: 8a87 35bd 85f5 3dbd d5ee 263d 9686 463e
000002c0: 9885 823e ed98 123e 5b06 a33d 1e09 783e
000002d0: f106 c9ba 92c9 8a3d e82d 403e 9661 7d38
000002e0: 811f 0ebd 9bfb 223e 4a74 00be e48e f1bc
000002f0: 4234 5e3e f39b 2f3e f6f6 9bbd 5a56 b1bc
00000300: e09b a63d 4c13 b6bd c9cd be3d f12e 8ebd
00000310: b2ec c6bc ab1b 55bc b6a5 ef3d 5a43 393c
00000320: 7989 383d 24b0 b5bd b000 a4bd f992 e6bd
00000330: e88d e83d 33c7 ccbd eea0 d33b fc27 9e3d
00000340: 1442 8f3d da69 28bd 7e2d ad3c 514f 533c
00000350: fc2a 0ebe aa9a 003e 38a7 da3d 09f5 de3d
00000360: 0053 db3d 28e7 a83d 4457 483b 156f c13d
00000370: 6ac1 c93d 967e a83c 4d1a a93d 57fe 1ebd
00000380: 47ff 99bc 1904 e3bd 456b 8abd 1dc8 afbc
00000390: 3a36 d0bd f50c 14be 9131 bb3d 47b7 2ebc
000003a0: 52ab e3bd 7f7f 373d f4ad cbbd cad8 3c3d
000003b0: 70e9 d63d 2baa 5d3d fe00 73be de5e 693b
000003c0: 9f17 b43d 0ec5 abbd 326b d73d 4c27 d13d
000003d0: ba66 1bbe 83b2 b13d 983a 583d 8f68 1fbd
000003e0: 2ba2 c83c 0038 c4bb 0881 93bd d32a d7bd
000003f0: 3aff f6bd 764a 3e3d b252 a93d a1d4 8b3d
0.038712792 0.056632742 -0.06461526 0.03481666 0.07464702 0.054551456 -0.08725919 -0.029186226
0.097670004 0.11633051 0.06419144 -0.017141495 0.030804498 0.0040705022 0.052797094 -0.06429259
-0.10741127 -0.10744454 0.026231093 -0.013657221 -0.15046862 -0.121668115 -0.08684752 -0.07454317
0.0407547 -0.034035366 -0.024253113 0.026726536 0.057813488 0.08937699 -0.11173096 -0.008498458
-0.005817135 0.0010550045 0.07667856 -0.012735588 -0.037017666 -0.18153276 0.021403028 0.08804369
0.042998068 -0.2670939 -0.2655364 0.07210871 0.07545153 -0.092298694 -0.32859764 -0.18744537
-0.09386858 -0.07554087 0.04195763 0.04883213 0.09375096 0.0098792985 -0.09849399 -0.15748759
0.23586603 0.16497573 0.0010314119 -0.093610965 -0.3336165 0.47148412 0.08096119 -0.10433668
-0.07212552 -0.13888377 0.45304704 0.07523067 -0.0704519 0.008677442 -0.1290548 0.13954607
0.09974771 -0.12992321 -0.092978664 0.11912978 -0.12291786 -0.077594355 0.08603436 -0.01095774
-0.023483507 -0.04352044 0.12798713 0.09837812 -0.06900554 -0.26595286 0.28813645 0.25495407
-0.07823428 -0.04566685 -0.20243593 0.3840133 0.036988888 -0.12652634 -0.05683742 0.0176707
0.24302794 0.056269202 0.09100916 0.051679004 0.009265453 0.14506993 0.07130457 -0.15012483
-0.041723225 -0.029141761 0.16869241 -0.279777 -0.085962705 0.029970113 -0.047168206 0.24193408
-0.4891091 0.11864037 0.022979856 0.072538465 0.28811574 -0.6278217 0.12648878 0.013046882
0.099075735 0.11354812 -0.39434347 -0.013410864 0.01119673 0.0035301277 -0.07499007 0.03446046
0.08136603 0.06438302 -0.076204285 0.009672934 0.09056698 0.1410481 0.012909317 -0.027546344
0.109728634 0.14878291 0.110020794 0.018172173 -0.03097924 0.08670444 0.031808197 0.06471198
-0.08393763 -0.09764093 0.01212031 -0.09257214 -0.019075062 -0.22190103 -0.033270653 -0.10396141
0.041456204 -0.026301477 0.021158502 0.06036837 0.02768475 0.061530083 -0.0039518136 0.16153604
0.040954474 0.12887292 0.057390094 -0.054330546 -0.0026354282 -0.03678824 0.026198035 0.07702759
0.12683679 -0.010382374 -0.01152343 -0.04899516 -0.044318713 -0.046376724 0.04075511 0.19387278
0.2549255 0.14316149 0.079601966 0.24222228 -0.0015337152 0.06776728 0.18767512 6.0410784e-05
-0.034698013 0.15916292 -0.12544361 -0.02948708 0.21699622 0.17149334 -0.076154634 -0.021647621
0.081351995 -0.08890399 0.09316594 -0.06942547 -0.024282787 -0.013007085 0.11701529 0.011307562
0.04505298 -0.08871487 -0.08007944 -0.112585016 0.113551915 -0.09998932 0.0064583933 0.0772247
0.06995025 -0.041116573 0.021139856 0.0128973285 -0.13883585 0.12559 0.10676426 0.108865805
0.1070919 0.082472146 0.0030569592 0.09445015 0.09851344 0.020568173 0.082569696 -0.038816776
-0.018798484 -0.11084766 -0.06758741 -0.021457726 -0.10166593 -0.14458068 0.091403134 -0.010663814
-0.11116661 0.044799324 -0.09945288 0.046105184 0.104937434 0.054117363 -0.23730847 0.0035609524
0.08793568 -0.083871946 0.10518493 0.102125734 -0.15175906 0.086766265 0.052790254 -0.038918074
0.02449139 -0.005988121 -0.07202345 -0.10506215 -0.12060399 0.04645773 0.08267726 0.06827665

conv2.bias f4 [16]
00000000: ddcb 4abe 8545 96be 2598 453e e351 fe3d
00000010: 5333 bcba 92df 0c3e 8f8f 93bd 74ce 38bd
00000020: 62cc dfbd dd2b 5e3e 93d7 b8bc 07a4 1dbd
00000030: d307 ca3d 318f 933e 3eb3 3c3b 8830 07be
-0.1980433 -0.29349914 0.1929632 0.124179624 -0.0014358558 0.1375716 -0.07205116 -0.045118764
-0.10927655 0.2169642 -0.022563731 -0.038486507 0.098647736 0.28820184 0.002879336 -0.13202107

fc1.weight f4 [256, 400]
00000000: 130e 2abc 1316 583d 6b43 583d 400a 953d
00000010: 33c1 53bc 2995 4bbd 6781 143c 1256 ee3c
00000020: 15d9 f0bc b1ce 4d3d d4bb 7ebd ce10 4cbc
00000030: a17c 153d fb84 a7bd 770c 2c3c a83a 353b
00000040: 0a9e f7bc ba6b 12bc 93f9 e6bc dee7 a5bd
00000050: f6a3 92bd 1a74 98bd f920 ecbd f3c4 15bd
00000060: a828 143b 3bf6 6f3c dd76 ba3c 928a 86bb
00000070: e3a4 1b3d ced8 08bd 7256 37bd 36d2 1a3c
00000080: 14e9 e5bc 4d84 32bd 7356 31bd b2c6 50bd
00000090: 1b05 41bd 0410 bd3a ea27 38bd 3cd2 82bd
000000a0: e6d3 a9bc 1237 c43b a1ec aabd bfa3 cebc
000000b0: 13c9 92bd 87ac 863c a272 a4bc be4b 5ebc
000000c0: d81c 66bd 790a a1bd e9d0 80bd 5e6a 54bd
000000d0: e4ed 463c ed4e 143c f779 c93c 9466 cc3b
000000e0: 3120 d4bc 74d5 35bb 4c6c 7239 5c7b 82bd
000000f0: 9ac5 b6bc f796 8ebc aa17 503c dbda a0bd
00000100: 7bd1 23bd 319e a9bc 98f1 99bc 01d7 65bd
00000110: 5ae9 29bd ca83 77bc c0f5 a2bd aba8 61bd
00000120: f97e 1dbd fe91 bfbd c437 58bd 3ffc 86bd
00000130: 1c73 90bd c749 233a 4e8e 5fbb a4f1 46bd
00000140: 6e60 45bd 01ef 273d 70dc 4e3c 400a a73d
00000150: 0a99 25bd 41c0 d83c acec 4fbc 3b53 563d
00000160: c93f 803c ca22 88bd f134 06bd f748 b13d
00000170: 4873 b23d c1da 9a3d 7a5a 803c 832a 203d
00000180: e2fe a83c 5dc2 f2bb 9e19 b43a fc73 04bd
00000190: e19c 22bd 8cae 44bc 4957 e83c 69d7 36bd
000001a0: 83a3 babc 4497 f83c 5a7e 41bd b0fa 28bd
000001b0: ba32 f23b 8366 6bbd 2bea a53c a8b9 82bb
000001c0: b468 9cbb 95bc 243d e66a 1b3d 44e7 973c
000001d0: d500 533c b082 3cbc a0ff ccbc 13bb 433d
000001e0: 8023 013d 6422 22bd 54ca b7bc 73b9 953c
000001f0: 6182 5cbc ca1a f4bc 6328 6f3d 1be3 f9bc
00000200: 1451 b0bb 866e 10bb 6c84 5cbd 3657 993c
00000210: d487 18bd 3f0e b4bd cae6 383c 0abf 6a3c
00000220: 2ff9 cabb d4cd 04be 4fc9 01bc cf46 54bd
00000230: 320f 9dbd abe0 adbd 347f bebd 129e 14bb
00000240: a887 763c d8e4 823b f06b f1bb 5bdc e5bd
00000250: 7e99 8fbd 4f5e c73c 7bd5 07bd 44c1 29bd
00000260: 21eb 8c3c 55c2 223d 4aa8 3abd efa5 53bd
00000270: 5d64 483c 6d84 2c3d 844b 01bd 28d6 42bc
00000280: 6e55 bdba 0e63 323c c7b1 5bbd 0072 babd
00000290: 7d17 4cbd a133 893b cb33 fcbc 02c8 68bc
000002a0: 2dcf 0ebd 445f d73b 1e0e eb3c e27d d2bc
000002b0: 6ad5 91bd be9a 51bb 0621 21bd 06ee 7e3c
000002c0: a6ec 113d 35dd c13c 948e 093d fe98 003b
000002d0: 9781 cf3b 8c9e 513d d7d2 b3bc 671f febc
000002e0: ca93 273b 4cc5 3abc 0f56 4d39 a8cd f2bb
000002f0: 547f 7e3c b209 dabc 11b4 99bc b39d 333c
00000300: a6be 013d 6308 ebbb a39d 7abb 4eb7 ac3b
00000310: 316c 0e3d 586d 2f3d 0a98 acbc 471d 953b
00000320: b0d7 a4bc 47c2 d23c b03e 04bd a7b7 073d
00000330: 3313 edba 9a73 b4ba c744 2a3d 6724 65bc
00000340: ed7e 74bc bab6 2b3d 68fa 1bbd 27e8 bebb
00000350: 1d74 d4bc 6a8a 183d f20d 3cbd 53b7 8c3c
00000360: 0383 ae3c 8ae5 e33c 670e 64ba 237f dcbc
00000370: 5370 1ebc d7d9 a33c 537b 65bc ed81 e13c
00000380: fad3 bdbc 96b4 4e3c aa2b 8bbd 828e c6bc
00000390: 4553 cebd 16e4 f0bc a363 41bd d18a 4cbd
000003a0: c5bd 9bbc 69ba abbb ebee 593c fec0 1ebd
000003b0: cc2f cdbd 15f1 dfbd a768 8bbd c4d2 4f3d
000003c0: 32fc 65bd f4b1 c6bd fce4 80bc 68e6 783b
000003d0: f84b 25bd 5e8e 23bd 446c 3abd 47ae ccbd
000003e0: 553d a8bc e1c9 b5bc 37b6 d83c bca7 5dbd
000003f0: f5c2 7bbd 1d2f 9fbc d5d7 98bc a6af 893d
-0.010379332 0.052755427 0.05279867 0.07277346 -0.01292448 -0.049702797 0.009064055 0.029093776
-0.029400388 0.050245944 -0.062190846 -0.012455178 0.03649581 -0.08179661 0.010501019 0.002765337
-0.030226726 -0.008936817 -0.028195178 -0.08100866 -0.07160179 -0.074440196 -0.115297265 -0.03656478
0.002260724 0.014646108 0.022761757 -0.0041058743 0.037999045 -0.033409886 -0.044760175 0.009449532
-0.028065242 -0.043583203 -0.043295335 -0.05097074 -0.04712401 0.0014424329 -0.04495994 -0.06387755
-0.020730924 0.00598801 -0.08345915 -0.025224565 -0.07167258 0.01643969 -0.020074192 -0.013567863
-0.05617985 -0.078633256 -0.062898465 -0.051859252 0.0121416785 0.0090520205 0.02459429 0.006237814
-0.025894256 -0.0027745636 0.00023119262 -0.06371185 -0.02231102 -0.01740597 0.012700954 -0.07854243
-0.039994698 -0.020705314 -0.018791959 -0.056113247 -0.041482307 -0.015107105 -0.07957029 -0.055092495
-0.03845117 -0.09354018 -0.052787557 -0.06591081 -0.07053205 0.000622895 -0.003411192 -0.04857029
-0.048187666 0.040999416 0.012625799 0.08156252 -0.040429153 0.026458861 -0.012690704 0.05232547
0.015655415 -0.066472605 -0.032765333 0.08656495 0.087133944 0.07561255 0.015668143 0.039103042
0.02062935 -0.007408424 0.0013740545 -0.032337174 -0.039700393 -0.012004506 0.028361933 -0.044639025
-0.022783047 0.030345567 -0.04723964 -0.0412547 0.007391301 -0.05747081 0.020253262 -0.003989417
-0.004773224 0.04021891 0.037943743 0.018542893 0.012878616 -0.011505768 -0.025024235 0.04778583
0.031527996 -0.03958358 -0.022435345 0.018276906 -0.013458819 -0.02979793 0.058388125 -0.0305038
-0.005380759 -0.0022038533 -0.053837225 0.018718343 -0.03723891 -0.0879178 0.011285493 0.014327774
-0.006194256 -0.12969142 -0.007921531 -0.05182534 -0.07668914 -0.08490118 -0.09301606 -0.0022677225
0.015046991 0.0039945655 -0.0073676035 -0.1122367 -0.07011698 0.024336962 -0.033162575 -0.041444078
0.017201962 0.03973611 -0.04557065 -0.05167192 0.01223096 0.04211848 -0.031566158 -0.011891879
-0.0014445016 0.010887874 -0.05363634 -0.09103775 -0.049827088 0.004187063 -0.030786416 -0.014207842
-0.034865547 0.006572636 0.028693255 -0.025694791 -0.071207836 -0.0031983103 -0.039338134 0.015559679
0.035626076 0.02366505 0.03358324 0.001962244 0.006332587 0.051176593 -0.021951122 -0.031020833
0.0025570267 -0.011399578 0.00019582383 -0.00740977 0.015533287 -0.026615951 -0.01876262 0.010962891
0.031675957 -0.0071726306 -0.0038240931 0.005270875 0.034771148 0.042828888 -0.021068592 0.0045506093
-0.020122379 0.025727404 -0.032286346 0.03313413 -0.0018087387 -0.0013767362 0.041569497 -0.01398573
-0.01492284 0.04192231 -0.038080603 -0.0058260146 -0.025934273 0.037241377 -0.045911737 0.01717726
0.021302706 0.027819414 -0.0008699656 -0.026916092 -0.009670335 0.020001335 -0.014006454 0.027527774
-0.023172367 0.012616297 -0.06795438 -0.024237875 -0.10074476 -0.029405635 -0.04721416 -0.049937073
-0.019011388 -0.0052407277 0.013301591 -0.03875827 -0.10018882 -0.109346546 -0.0680707 0.05073811
-0.056148715 -0.097019106 -0.015734188 0.003797913 -0.040355653 -0.039930694 -0.045513406 -0.09994178
-0.020537058 -0.02219099 0.026454074 -0.054115042 -0.061465222 -0.019431645 -0.018657604 0.067229554

fc1.bias f4 [256]
00000000: d5a4 47bd e350 3e3c 2913 783e f6d1 f6bb
00000010: 0a25 613b 3efe 83bb 89e5 713d 68fb bd3e
00000020: 362d c3bd d661 0dbd e3fe 343e 0b21 95bc
00000030: 69ce 8fbd b54e 96bd 8c2e 42bd 6260 4d3e
00000040: 9a69 37bd 980c d73e 2d0b e73d ed87 943e
00000050: 6598 c23e 534d 153d e1b8 17bd ed7d 87bc
00000060: df93 c53d 193a 2cbd 366d 62bd 9fca 723d
00000070: de6f e7bc 58c3 83bd 4bf1 9bbe b88a ecbd
00000080: aa8f 453e ba22 8b3c af04 283e 6726 263d
00000090: 4282 8fbd 22d1 663d 9972 ab3d 9a8d 0f3f
000000a0: b8d9 cb3d 71fd a2bd 6b23 9ebd bd63 c13d
000000b0: ed71 393e ae63 e13c 4655 aa3e cf89 f6bc
000000c0: fc2d f6bb 5307 39bd 9a02 363e 4396 e43c
000000d0: 6d6b 3a3e 436f a6bc c650 d0bd 9869 a8bd
000000e0: c146 ea3e 4626 24bd 0cf0 aa3e fa67 8dbc
000000f0: 6ea2 4bbd 3a4c b63e 8c9b 28bd 4eac 84bd
00000100: e359 ed3e 2bff 92be c4da ce3c 3ecd c33e
00000110: 9a93 86bc 7cc4 f2bc 0772 68be ea21 2c3d
00000120: dc69 99bb 0c76 2cbb fa80 6fbe ff24 dd3c
00000130: 8828 0abe 6889 6ebd b7c7 49be 8348 4a3e
00000140: a590 21bd 44b2 313c 1a14 e83e 09bb 023f
00000150: 979d 4bbd 8889 cd3d e236 24bd 5ed8 34bd
00000160: ed10 723e d1ae b8be 3529 65bd 560e 433e
00000170: 546e 223e bfdb 113c 2c98 173e 0193 7dbc
00000180: b500 f1bc 8094 ee3e 6455 57be 6ac5 47bd
00000190: 28a0 d03c 8d2b 073d 34de f43d e145 c0ba
000001a0: 3726 8dbd 94a6 6bbd f307 233e e787 86ba
000001b0: 56fe 96bd c49d c33e 665c 3fbd fcda eabc
000001c0: 1df5 fc3d 339e 4a3d 3018 743e c35d 913c
000001d0: 821e ea3d 245a 9b3e af54 ef3e 701b 06be
000001e0: b62d 733e 1e67 5ebd d638 58bd 0784 833e
000001f0: 6864 883d 99a5 ffbc c7a9 563d f03a d3bc
00000200: 0646 dbbd 58eb 403e 733e 933d 1ab1 253e
00000210: 7931 01bf bbd0 8b3e 9e1c 803c 5576 073e
00000220: a9ca 103d 53f5 0dbd 69d8 ae3e 881d 00bd
00000230: 2337 333e 8159 c93e db25 cabd 5687 51bd
00000240: 6ec5 ca3c 4871 48be acbc 453d 1f6a 3e3e
00000250: dd45 4cbd ab44 323e 37e6 d6bd 42ec b83d
00000260: baf9 923e 361b 3fbd ee8d 59be 16f6 173f
00000270: 6f23 55bd e134 b7be 61e1 3d3c 8cb5 9b3e
00000280: ae9f 67bd 0f23 6bbd 3ecf acbc 4c9e d63e
00000290: 017a 9cbc 29e4 b0bd 56fc 703d c25c 873e
000002a0: f96c ea3d 9824 e33c 52cd f53e 4356 c6bc
000002b0: 380b 073e 249d bb3e 6f5c d9bd 330b 3f3e
000002c0: 64c6 51bd ae22 17bd f216 7cbd 7d74 5b3e
000002d0: b9c7 ba3d 8235 8fbc b8c3 47bc 6c80 033f
000002e0: df14 98bd cc4c cfbc dda8 133e 7fea 03bd
000002f0: b31d 7ebc 1acb 883e 576c 843e 2a0d 9b3e
00000300: 7ea6 bc3d d87a a53e 574b 2cbd 7cfa a23e
00000310: c521 253e f005 6fbd e90e 36bd aeb8 2fbd
00000320: 514f 833c eca1 d93b d33d b73e b904 d1bc
00000330: ba64 483e 01ff 6a3b 107b e3bd 6b9a 82bd
00000340: 5b6e 7a3e a2d3 b33d 8ef7 913d 6a9a 1c3c
00000350: 6985 7d3e 06fa 58bc 9ced 8c3e 71fd 053f
00000360: 948e 81bc cc9f e83e f6de 4bbd 59b1 86b9
00000370: addb 84bd 430e 2bbd 7e9b ce3e 7692 86bd
00000380: 37e9 153f 8014 f43d 69ce adbb c51a 84bd
00000390: 2e01 99be 1489 5bbd e1dc 3c3e 49d0 143e
000003a0: 8d38 88bd bb16 e63b 9597 51bd b231 7cbc
000003b0: 0f7d 88be db99 35bb 4b53 a03d 0d55 783e
000003c0: e337 d23e 1357 4ebd 60e9 7ebe 57f5 08be
000003d0: 6fd5 963e 87ff 883e daf2 283e 337b f1bd
000003e0: 7f70 e13d f2c8 7e3e 465d f63e 05f9 9e3d
000003f0: c2e4 9abe 11c5 80bd be5e f6bc 57ae 33bd
-0.04874118 0.011615965 0.24226059 -0.0075323535 0.0034354352 -0.0040281108 0.059056792 0.3710587
-0.09530108 -0.03451713 0.17675357 -0.018204233 -0.070217915 -0.07339231 -0.04740767 0.20056298
-0.044778444 0.42001796 0.112814285 0.29009953 0.38006893 0.036450695 -0.03704155 -0.016539538
0.09647345 -0.042047594 -0.055279933 0.059275266 -0.028251585 -0.06433743 -0.3045753 -0.11549896
0.19293085 0.016984332 0.16408037 0.040563967 -0.070072666 0.05635179 0.08371467 0.5607544
0.09953636 -0.07958496 -0.07721599 0.09442852 0.18109865 0.027513351 0.33268183 -0.03009501
-0.007512806 -0.045173 0.1777443 0.027903682 0.18205042 -0.020316726 -0.10171656 -0.082232654
0.45757106 -0.040075563 0.33386266 -0.017261494 -0.049715452 0.3560503 -0.041163966 -0.06478177
0.4635764 -0.28710303 0.0252508 0.38242525 -0.016427804 -0.029634707 -0.22699748 0.04202453
-0.004681809 -0.0026315479 -0.23389044 0.02699518 -0.13492024 -0.05823651 -0.19705091 0.19754224
-0.039444584 0.0108457245 0.45327836 0.51066643 -0.049710836 0.10035998 -0.040091403 -0.044151656
0.23639269 -0.36070874 -0.0559475 0.19048437 0.158624 0.008902489 0.14804143 -0.015476943
-0.029419282 0.46597672 -0.21028668 -0.048772253 0.025466993 0.033000518 0.119564444 -0.0014669263
-0.068920545 -0.05753191 0.15921001 -0.0010263891 -0.073727295 0.38206303 -0.046718977 -0.028668873
0.12351439 0.049467277 0.23837352 0.017744904 0.114316 0.3034221 0.46744296 -0.13096404
0.23747906 -0.05429756 -0.052788578 0.25686666 0.06659776 -0.031206893 0.052408006 -0.02578494
-0.10706715 0.18839777 0.071896456 0.1618084 -0.50466114 0.27307686 0.015638646 0.13228734
0.03534952 -0.034657788 0.34149483 -0.031278163 0.17501502 0.393261 -0.098705016 -0.051154457
0.024752345 -0.19574463 0.048275635 0.1859517 -0.049871314 0.17409007 -0.10493129 0.090294376
0.2870615 -0.04665681 -0.21245548 0.5935987 -0.052035745 -0.3578253 0.011589379 0.30411947
-0.056548767 -0.05740648 -0.021094915 0.41917646 -0.019101145 -0.08637268 0.058834396 0.26437956
0.11446566 0.02772741 0.4800821 -0.024211055 0.13187873 0.36643326 -0.106133334 0.18656616
-0.05121459 -0.036898308 -0.06154532 0.21431156 0.09120125 -0.01748157 -0.012192659 0.5136783
-0.07425856 -0.025305174 0.14419885 -0.032206055 -0.0155100105 0.26717454 0.25863907 0.3028348
0.09211443 0.32320285 -0.042064037 0.3183173 0.16126163 -0.05835527 -0.044447813 -0.042900734
0.016029032 0.006641617 0.35789356 -0.025514947 0.19569674 0.003585756 -0.11107457 -0.06377109
0.2445616 0.087806 0.071272954 0.0095583 0.24757923 -0.013243204 0.27525032 0.52339846
-0.015815057 0.45434415 -0.04977318 -0.00025690606 -0.06487212 -0.041761648 0.40353006 -0.06570904
0.5855898 0.119179726 -0.005304147 -0.064504184 -0.29883713 -0.053597525 0.18443634 0.1453258
-0.06651411 0.0070217527 -0.05116995 -0.015392708 -0.26657912 -0.0027710113 0.07828387 0.24251194
0.41058263 -0.05037601 -0.24893713 -0.1337484 0.29459712 0.26757452 0.1649889 -0.117910765
0.11007785 0.24881342 0.48118037 0.077623405 -0.30252653 -0.062875874 -0.030074473 -0.043867435

fc2.weight f4 [10, 256]
00000000: 9208 0b3d 311a 3f3c b5bd b63d f4b0 ea3d
00000010: f60d 103d 0983 17be 9d1d 913d e0f7 31be
00000020: 32ba fbbc 6301 423d c60b f83d 0b60 9abc
00000030: 8820 34bc 6ab3 1eb6 6d45 9bbc 7d41 aabd
00000040: d913 c1bc acb3 5cbe 90d6 e73d 96d1 c13d
00000050: 517d 1b3e 4e98 f4bc db49 d13b 4dfc 303c
00000060: 6a80 1fbd 61b7 73bd 1c14 2cbd e1b4 b63d
00000070: 0399 ed3c 1c58 90bb d19f b33d 9215 303d
00000080: 05e9 66be d6bd d6ba 73b8 313d e3db 923d
00000090: 1502 0bbd e599 08bd 90f7 ffbd 13f3 7fbe
000000a0: 8885 a83d 3104 31bd 1814 4bbb b303 dfbd
000000b0: 7be9 06bd 23d6 2ebd c7d2 213e df42 603b
000000c0: 2bd3 68bc c9b0 a1bc 901e e2bd 4f02 113e
000000d0: 8a0d d13d 71d1 15bd 126c 9a3d 8469 a5bc
000000e0: f28f 463e 78f6 af3c 9cd1 95be 70d7 42bc
000000f0: 6a52 67bd 9551 acbe d46a abbd ce91 513b
00000100: 8078 43be 94fd 7bbb 51c7 2d3d 9616 33be
00000110: bc93 49bd 620a 9abc b221 393e 9af8 583d
00000120: cf8a 8ebe 1a85 04bd d210 113e ec7d babd
00000130: 71b3 bc3e 8a9b ef3b d0d3 043e 34d7 25be
00000140: 6d2b c0bc 377b 82bb 3d03 8f3d c91a 3fbe
00000150: 7433 a73c 0c99 3dbe e03c a5bd d223 60bd
00000160: 5441 0a3c 5a24 ae3d dcd1 bfbc 7b45 bf3d
00000170: c555 22be 439b 373d db14 f03d cc0f 86bd
00000180: b5da 25bd 976d 24be d11f 853c fb05 d6bc
00000190: 2458 013e 963a 043e 07d2 a63d 2626 103c
000001a0: 5c0b d63b bb5f 9e3d 24fd 913d 809e 60bb
000001b0: e01d 9bbd 3ece 50bd bd9a a3bc 86a5 05bd
000001c0: c264 633b 15c4 973d 57cb 53be ed13 f43b
000001d0: 0680 e53d c329 9ebd bb01 5cbe 0407 96bd
000001e0: e771 94be 5038 74bb a0a3 b0bc 4233 033e
000001f0: 1d9f 33be 4e8f 6fbd aba8 c93c 7e52 803d
00000200: 8901 3f3d 9d66 83bc 9e8e d33c ee7d b13d
00000210: c71d 5e3e 3fb9 d93d 80b4 4e3e bdd4 803d
00000220: 8e59 803a f318 cdbd 3d9f e33d 64bf a5bb
00000230: a718 76be 821b 82be 6742 f93d e5c3 a7bd
00000240: b748 debc f19c d93d 7899 bc3c 464e 923d
00000250: 7f93 55bb 731a fcbd 78d6 91bd f981 fcbd
00000260: e0b9 a1be f48f b0bd cc79 35bb c43a 03be
00000270: 24c8 acbc b392 133e bf45 7b3d 2d5e f13d
00000280: 8042 fabb 2e47 48bb 6024 30bc fd6d f8bc
00000290: 682c 503d 9d91 d43c cc99 89bc 5d2a 3ebe
000002a0: 562b 03be 4dd3 49bd d553 44be dfd2 a63c
000002b0: 75cf 18be b1eb e5bd 0fb0 ca3d cbc2 e9bc
000002c0: a149 083c 7e69 ee3c 431b 4cbd 6fbf aebd
000002d0: 715d bc3d 2a73 efbd 11e2 08bd d809 84be
000002e0: 6c90 133d 716c 0d3d bb49 4dbd fc6f 26bd
000002f0: 98da 633d 3369 d43d 37d4 503b 6313 a4bb
00000300: 969f 79be 2ae7 7fbb 5728 77bc ef5f 47be
00000310: c6f8 133e a7e2 ea3b 7a03 813c 3664 063d
00000320: d673 a93c 1e22 013d 09d8 ca3d 2c3c c13c
00000330: 72c0 f13d cc6a a9bd f85d a23d fdc9 863a
00000340: 00e4 6e3c 5076 353d 5287 e63d 21f9 933d
00000350: 73c1 3a3d 8e37 bc3c 845a 833d 1ac4 66be
00000360: 154c a83d eb77 7d3d 9a05 27bd a09d d2bb
00000370: 653c 8c3b a21a 443d dae6 2cbe 03b2 0e3d
00000380: fbbd 89be d740 81bd 13b5 80be ac78 30bd
00000390: bb54 0cbd bdda 93bd 9d29 93be 843a 943d
000003a0: dcbd 1e3d 30de 73bc 753f 11bc 4a39 c6bc
000003b0: 38dd 143e 388a 7fbc 48dd e8bc 0e2a 1bbe
000003c0: 99e0 53be 5da8 7abc 405e 343c 39eb d53c
000003d0: 3b41 b33d 368a 383d e216 133e 1154 153c
000003e0: ffe5 723d f251 2a3e 3c21 1c3e cb85 edbd
000003f0: 06a0 12bd a9a5 de3d abe0 7f3c 8862 dabc
0.03394372 0.011663959 0.089229025 0.114595324 0.035169564 -0.1479608 0.070857264 -0.17379713
-0.030728433 0.047364604 0.121116206 -0.018844625 -0.010994084 -2.3648267e-06 -0.018954003 -0.08313272
-0.023569034 -0.21552914 0.113202214 0.094638035 0.15184523 -0.02985778 0.006386978 0.010802341
-0.038940825 -0.059501056 -0.042011365 0.08921219 0.029003626 -0.0044050347 0.08770717 0.04298932
-0.22549827 -0.001638348 0.043388795 0.07170846 -0.033937532 -0.03334989 -0.12498391 -0.24995069
0.08228594 -0.043216888 -0.0030987319 -0.108893774 -0.032937508 -0.042684685 0.15803061 0.0034219546
-0.014210503 -0.019737618 -0.110409856 0.14161037 0.102076605 -0.036576692 0.07540144 -0.020191915
0.19390848 0.02147983 -0.29261482 -0.011892185 -0.05647508 -0.33655992 -0.08369985 0.0031977776
-0.19088936 -0.0038450705 0.04242641 -0.17489085 -0.049213156 -0.018803779 0.1807926 0.05297146
-0.27840278 -0.032353498 0.14166573 -0.09106049 0.36855653 0.007312243 0.12971425 -0.16195375
-0.023458207 -0.0039819735 0.069830395 -0.18662561 0.020410277 -0.18515414 -0.080682516 -0.05472166
0.008438427 0.08503027 -0.023415498 0.09339424 -0.15853031 0.044825803 0.11722728 -0.06545982
-0.04049178 -0.1605743 0.016250523 -0.026125899 0.12631279 0.12912974 0.08145528 0.008798158
0.006532116 0.07733103 0.07128361 -0.003427416 -0.075740576 -0.050977938 -0.019971246 -0.03262856
0.0034697508 0.074104466 -0.20683037 0.0074486644 0.11206059 -0.07722809 -0.21485035 -0.07325557
-0.2899315 -0.003726501 -0.021562397 0.12812522 -0.17541166 -0.058486275 0.02461656 0.06265734
0.046632323 -0.01604014 0.025824841 0.08666597 0.21691047 0.10631036 0.20186043 0.062905766
0.0009792314 -0.10014524 0.11114357 -0.005058216 -0.24032842 -0.25411612 0.12170868 -0.08191661
-0.027134283 0.10625637 0.023022398 0.07143836 -0.0032589135 -0.12309732 -0.07120985 -0.12329478
-0.31587124 -0.08621207 -0.0027691005 -0.12815386 -0.021091528 0.1441143 0.061345812 0.11785541
-0.007637322 -0.0030560005 -0.01075086 -0.030325884 0.0508236 0.02594834 -0.016796969 -0.18570848
-0.128095 -0.049273778 -0.19172604 0.020364223 -0.14922889 -0.11226595 0.09896862 -0.028535267
0.008318336 0.029103037 -0.049830686 -0.08532607 0.0919751 -0.11691888 -0.03341872 -0.2578876
0.036026403 0.034527246 -0.050119143 -0.04063414 0.05562839 0.10371628 0.003186477 -0.005007194
-0.24377283 -0.0039047697 -0.015085301 -0.1947019 0.14450368 0.0071681323 0.015748728 0.032810412
0.020685118 0.031526677 0.09904487 0.023588262 0.11804284 -0.08272323 0.07928079 0.0010283586
0.014580727 0.044302285 0.11256279 0.07225252 0.045594644 0.02297571 0.06413749 -0.22535744
0.082176365 0.06188194 -0.040776826 -0.006427482 0.0042796605 0.04787696 -0.16884938 0.034837734
-0.26902756 -0.06311195 -0.2513815 -0.04308383 -0.034260493 -0.072194554 -0.28742686 0.072377235
0.038755283 -0.014884517 -0.008865227 -0.02419724 0.14537513 -0.015596919 -0.028425828 -0.15152761
-0.20691146 -0.01529893 0.011008799 0.02611314 0.08752676 0.045053683 0.14364198 0.009114281
0.059301373 0.16632822 0.15247053 -0.115977846 -0.03579714 0.10871441 0.01561753 -0.026658311

fc2.bias f4 [10]
00000000: 500b f7be 8a28 aabe fff1 45be 1566 a33e
00000010: 0ad3 dc3e 23d2 24bd 0f29 57bd 6b20 72bd
00000020: 3205 543d 818e 153e
-0.48250818 -0.33234054 -0.19330595 0.3191382 0.4312976 -0.040239464 -0.05252939 -0.059112947
0.051762767 0.14605142
